artifacts/model.tflite (tflite, 830936 bytes, 10 tensors)

sequential/dense/BiasAdd/ReadVariableOp f4 [100]
000000 ca 64 25 bd f6 4f 18 bd 1a 02 46 3e 10 b1 97 bd
       -0.040379323 -0.03718563 0.19336739 -0.07406819
000010 5c 94 32 3b 78 f3 e6 bc 61 46 d9 bd 5a 51 28 be
       0.0027249074 -0.028192267 -0.10609127 -0.16437283
000020 9e 8e 8e bd df bd 0d be 21 fa f8 bc 0d 83 5e 3c
       -0.06960796 -0.13841961 -0.030392708 0.01358105
000030 47 4d d7 3d 35 0c 3f bd 44 be 1a 3e 1a a3 43 3b
       0.10512786 -0.0466425 0.15111643 0.0029851855
000040 40 f1 30 3e 83 7b 04 bd 35 3e 3f be 1a 87 ea bc
       0.1727953 -0.032344352 -0.18676074 -0.028628875
000050 86 bf 0a bd 92 0d 7f bd bb 69 91 3c 44 d9 c2 3d
       -0.033874057 -0.0622688 0.017750612 0.095140964
000060 1f 09 af bd 43 9e 98 bc 05 be 14 bd 26 de 39 bc
       -0.085466616 -0.018630153 -0.03631403 -0.011344468
000070 93 c3 ab bd cb 5e 01 bc 99 52 0a bb 67 5a 83 3e
       -0.08386912 -0.007896136 -0.002110636 0.2565491
000080 53 ab 9a 3c c1 73 3c be fe 46 1e bd 76 7b ea bd
       0.018880522 -0.18403532 -0.038641922 -0.114493296
000090 7a c2 4d 3e ab f1 ed bc 8b 51 66 3d 03 59 81 3e
       0.20093718 -0.0290459 0.05623011 0.25263223
0000a0 f4 f4 8d bd 10 3c 06 be 72 f4 7f bd 72 f6 7a bd
       -0.06931487 -0.1310885 -0.06248898 -0.061270185
0000b0 62 c7 1f 3e fc 04 7f bd f5 38 0f bd 83 e4 15 bd
       0.15603402 -0.062260613 -0.034966428 -0.03659488
0000c0 53 4d 85 bd 11 53 73 bd 65 fd af bd 63 f2 bd bd
       -0.06508889 -0.05940539 -0.08593253 -0.09274747
0000d0 15 c6 f8 3c 1e 14 d7 bc 98 1d 02 be a9 55 a5 3d
       0.03036789 -0.02625471 -0.12706602 0.08072979
0000e0 f0 8f f3 bd f8 33 c9 bc 4a d8 91 3e 05 a2 40 3e
       -0.11892688 -0.024560913 0.28485328 0.18811806
0000f0 ea 14 8c bc 63 44 d1 3c 71 40 f0 3d 22 9b 0a bd
       -0.017099816 0.025545305 0.11731041 -0.033839352
000100 4b 90 19 bd 4b ec 04 bd 13 3e fc bc 1c 4c 89 bc
       -0.037491124 -0.03245191 -0.030791318 -0.016759925
000110 85 1e 93 3d c6 ef f2 bc fd 77 08 bd fb 2a 20 be
       0.071835555 -0.029655349 -0.033317555 -0.15641396
000120 31 cb 65 be 8a 1f a7 bb db 34 10 3c 0b 3e 36 bd
       -0.22440793 -0.0051001953 0.008801664 -0.044492763
000130 eb ff 58 bc e6 77 6c bd 6e ea 20 bd 39 9e c7 bd
       -0.013244609 -0.05773153 -0.03928607 -0.097469755
000140 22 11 22 bd 22 26 6d bc d6 29 5d be aa c3 c4 bb
       -0.03956712 -0.014474424 -0.2159799 -0.0060047703
000150 1d 79 0a 3e a9 77 f2 bc ba b8 1e be d8 fd 1d bd
       0.13522764 -0.029598074 -0.15500155 -0.038572162
000160 8b 32 96 bc f4 a9 71 bd e8 43 b2 bc 91 de 7d bc
       -0.018334648 -0.05899997 -0.021760896 -0.0154949585
000170 b3 33 58 bd 9c ac 0c bd d5 1e 30 bd 90 90 30 3c
       -0.05278368 -0.0343443 -0.042998154 0.010776654
000180 6d e5 52 bd 9d b8 98 3d b0 9c b4 bd 8c 5f 1c be
       -0.05148833 0.07457087 -0.08818948 -0.15270823

sequential/dense_2/BiasAdd/ReadVariableOp f4 [3]
000000 9c a8 85 bd db 43 69 3e f8 b0 69 be
       -0.065263 0.22779791 -0.22821414

sequential/dense_1/BiasAdd/ReadVariableOp f4 [100]
000000 75 a5 a2 3e 8c a5 1f be aa 00 55 bb 8b 9c 42 bd
       0.3176686 -0.15590495 -0.0032501617 -0.047512572
000010 95 6b a7 3e 78 2a 9d 3e 45 98 4c 3e 79 73 97 bc
       0.32699266 0.30696464 0.19979961 -0.018487679
000020 e9 33 8b 3d 06 67 4a 3c c3 23 3c 3e 93 99 dc 3d
       0.067970105 0.012353664 0.18373017 0.107714795
000030 d8 1a 56 be 17 b5 41 bd 2c a7 52 bd 1e 36 05 3d
       -0.20908678 -0.04729184 -0.05142896 0.032522313
000040 07 af b7 3e e6 de 44 3e 89 26 ad bb a9 f5 90 3e
       0.35875723 0.19225654 -0.0052841348 0.28312424
000050 19 c5 07 3e 02 72 fe 3c 2e 41 d9 bd ab 05 98 3e
       0.1325878 0.031060223 -0.10608135 0.29691824
000060 33 d9 8c 3e f6 b2 ed bd fa cd 5c 3e 28 58 0e be
       0.2750946 -0.116064 0.21562949 -0.13900816
000070 30 8e e0 bd 11 2e 17 be f0 97 90 bd e2 d4 84 bd
       -0.1096462 -0.14763667 -0.0706023 -0.06485917
000080 80 ae 2e be 7c da b4 3d 52 ac 45 be 55 94 79 be
       -0.17058754 0.08830735 -0.19304016 -0.2437299
000090 c6 a2 1f be 03 3b d9 bd 92 4b b7 3e da fc 83 be
       -0.15589437 -0.10606959 0.35799843 -0.25778848
0000a0 79 f9 31 bd 69 6c b0 bd 42 33 49 3e d7 25 72 3e
       -0.043450806 -0.086144276 0.1964846 0.23647247
0000b0 57 52 9f 3e 83 04 19 bd bc cb 69 bb e9 3d 85 3e
       0.31117508 -0.03735782 -0.0035674414 0.26023796
0000c0 6e 16 28 bd 7e 73 1e be dd 36 9d 3e 77 0c 93 3e
       -0.041037016 -0.15473744 0.3070592 0.28720447
0000d0 a0 3c ac bd bc 9e 35 bd 06 48 77 be dd a6 d8 3d
       -0.08410001 -0.044340834 -0.24148569 0.10578702
0000e0 e8 4b b3 bc e7 f7 c8 bd d3 ad 51 3d 01 d9 69 bc
       -0.02188678 -0.098129086 0.051191162 -0.014272929
0000f0 82 19 c4 3d 23 1a 70 3e 3a 3b c1 3d 06 22 5d be
       0.09575178 0.2344747 0.09435125 -0.2159501
000100 5f d8 84 bd 01 f9 83 be 7e 5b f5 bd 74 2b 0b be
       -0.06486582 -0.25775912 -0.119803414 -0.13590795
000110 62 e1 89 bd 36 99 e3 3b 5f 9d 42 bc 0d db 15 3d
       -0.067324415 0.0069457544 -0.0118783405 0.036585856
000120 0b ee 15 be 7f 39 7b 3c 50 36 43 be 32 d2 8c be
       -0.14641587 0.015333532 -0.19063687 -0.27504116
000130 ae df 9c bd 78 58 65 be 8a 76 c8 bd ed 7f 24 be
       -0.07659851 -0.2239703 -0.097882345 -0.16064425
000140 d5 ac 09 be 7b ae 1f be 14 10 2b be 61 ab cc bd
       -0.13444836 -0.15593903 -0.16705352 -0.099936254
000150 05 2a 84 bb e1 59 87 be 4e c2 f9 3c ec cc 07 be
       -0.0040333294 -0.2643576 0.03048816 -0.13261765
000160 fd 61 d5 bd 97 8e 35 be 9b 0d 2a 3e c9 52 a6 bd
       -0.104190804 -0.17730175 0.16606753 -0.08121259
000170 a5 4d ce bd 3b 33 7d bd 8b 9e 66 bc df 19 ca bd
       -0.10073403 -0.061816435 -0.0140758855 -0.09868216
000180 43 9a 3b be bb 98 8d b9 94 3f 19 bd 05 2f 80 3b
       -0.18320565 -0.0002700741 -0.03741415 0.003911855

sequential/conv2d/BiasAdd/ReadVariableOp f4 [64]
000000 9a db 53 bd d1 e7 62 bd 45 45 93 3d b2 5e ba bc
       -0.0517231 -0.05539686 0.071909465 -0.022750232
000010 c2 e4 d8 bc 26 b2 f5 bc c6 5e 1d 3d 6b 3d 3f bc
       -0.026476268 -0.029992174 0.03842046 -0.011672358
000020 fa 9c b6 3d ca 1f 2b bd dc f5 54 bd 93 28 61 3d
       0.0891666 -0.041778363 -0.051992282 0.054970335
000030 c5 d8 c6 3c 88 87 fa bd 28 07 db 3c 68 b0 d2 bc
       0.024273286 -0.12232882 0.02673681 -0.025718883
000040 8b 51 a5 bd 03 ac a0 bc 14 a0 90 bd 2a 60 2f bd
       -0.08072194 -0.019613272 -0.070617825 -0.04281632
000050 65 cf a9 bc e4 ac 51 bd fa 56 01 bc a1 e9 39 bd
       -0.020728776 -0.051190272 -0.007894272 -0.04538882
000060 29 cb 3b 3c dc 8c 5b 3c ef 4f d0 3c 4e 6b c6 bc
       0.011462011 0.013400283 0.02542874 -0.024221089
000070 8d 08 77 3d 52 3a 08 bd 83 33 28 bd 75 a0 19 bd
       0.06031089 -0.033258744 -0.04106475 -0.03750654
000080 8e 9c 60 bd 36 45 0c 3c 8c b5 ab bb 44 98 f2 bc
       -0.054836802 0.008561423 -0.005240148 -0.029613622
000090 6f 39 c3 bd c7 6e d7 bc e3 6a 92 3d f6 d5 49 bd
       -0.09532439 -0.02629794 0.07149293 -0.049276315
0000a0 0e 2e ab bc 28 88 1b 3d 72 87 0a bc 28 17 21 bd
       -0.020895984 0.037971646 -0.008455144 -0.039328724
0000b0 4c e8 ad bc b0 4a a3 bc 61 c6 82 bd 0a ac b2 bc
       -0.021228932 -0.019933075 -0.06385494 -0.02181055
0000c0 19 17 f4 bc 14 51 68 bd 56 c2 d4 bc 1e 99 2c 3d
       -0.02979617 -0.056717947 -0.025971573 0.04213821
0000d0 8f 7d c6 bc 7f fd 21 ba 61 2f 41 bd c6 63 02 3c
       -0.024229793 -0.00061794365 -0.047164325 0.007958358
0000e0 90 18 7f bc 89 fa e9 bc a0 d2 56 bd fc 77 87 bc
       -0.015569821 -0.028561847 -0.05244696 -0.016536705
0000f0 25 1d 60 3d 34 e0 ba bc 2b e4 3a 3d 19 b0 81 bc
       0.054715294 -0.022811987 0.045627754 -0.01583104

sequential/conv2d_1/BiasAdd/ReadVariableOp f4 [64]
000000 53 be 65 bc 73 57 f0 3d d1 73 dd bd 8d 1d bf bd
       -0.014022428 0.117354296 -0.10813106 -0.09331808
000010 be 4b 73 bd 8f 99 ed bc f5 73 0d 3c fc 33 3c bd
       -0.059398405 -0.029003887 0.008633603 -0.045948014
000020 d1 e8 08 be b7 06 16 bd 53 55 7c bc 5a f5 53 bc
       -0.13370062 -0.036627498 -0.015401202 -0.012936914
000030 e7 7f f0 bc cf 88 f7 bc 7c 39 cd bc 40 aa a1 bc
       -0.029357864 -0.030216603 -0.025051825 -0.019734502
000040 31 74 35 bd 44 e0 eb bc 77 84 54 bd c4 41 d3 bc
       -0.044300262 -0.028793462 -0.05188414 -0.025788195
000050 ff dd 2c 3d 01 5a 8b bc c0 c1 28 bd 4d f9 24 bc
       0.0422039 -0.01701069 -0.0412004 -0.010069204
000060 27 08 38 bd 9f 12 22 3d 73 2e 88 bd 98 a5 e6 bc
       -0.04492965 0.03956854 -0.066494845 -0.028155133
000070 d1 88 e9 3d 8b 7a 52 bd 5c b1 a1 bc 5d 79 d4 bd
       0.11403049 -0.051386397 -0.019737892 -0.10374711
000080 7a 5c 3b 3d a3 25 6a 3c 44 b4 c7 bc b7 87 14 bd
       0.04574249 0.0142912 -0.02437795 -0.03626224
000090 17 b2 9f 3d 2f 0c 6e bc 3d ef b4 bc 0b 6e 73 bc
       0.0779764 -0.014529272 -0.022086734 -0.014857779
0000a0 72 86 91 bc 7e 98 11 bc 09 d2 99 bc 62 04 4d bc
       -0.017764304 -0.008886455 -0.01877691 -0.012513252
0000b0 8e 4f 5c bd 86 fa 28 bc 57 b1 dd bc 80 cb 4d 3c
       -0.053786807 -0.010313636 -0.027062101 0.012560725
0000c0 55 25 7b bd aa 8c eb 3c 72 8f 76 bd 3c bd 42 bd
       -0.0613149 0.028753597 -0.060195394 -0.04754375
0000d0 00 07 8f bc 53 d9 8b bc 71 34 e3 bc 99 18 08 be
       -0.017459393 -0.017071402 -0.027734967 -0.13290633
0000e0 9f fc 5d 3b 92 16 5b bd ea a3 2f bd 16 4e 1d be
       0.0033872498 -0.05348832 -0.04288093 -0.15361819
0000f0 f5 48 39 3c 78 ab 90 3c 82 c3 05 bd 3e b2 47 bd
       0.011308898 0.017659888 -0.032657154 -0.04875397

sequential/dense_2/MatMul f4 [3, 100]
000000 b5 72 45 be 44 ed 84 bd 55 11 e9 3d b6 21 72 3d
       -0.19282039 -0.06490567 0.11380259 0.05911418
000010 7b d5 2e bb 40 13 bc 3c a1 39 23 be 9e dc 04 3e
       -0.0026677537 0.022958398 -0.15939952 0.12974784
000020 7d f3 20 bd 40 d2 e2 3b 5d b0 fd bd 61 45 42 3e
       -0.03929471 0.0069220364 -0.12387154 0.18971778
000030 7c 3d a0 bd 21 f0 de bc ee 11 51 bd f6 84 0a be
       -0.07824227 -0.027214112 -0.05104249 -0.13527283
000040 41 4b c9 3c 06 cc 90 be 9d b0 f7 bd 0c 9a 89 be
       0.024572017 -0.28280658 -0.12094233 -0.2687534
000050 f3 fb 52 bd b2 71 c4 3b c6 01 d4 3d a5 87 39 be
       -0.05150981 0.005994999 0.10351901 -0.1811815
000060 a3 cd 5b bc 4c 1a d6 3a 8c ad c8 bc 84 e7 f5 ba
       -0.013415727 0.0016334741 -0.024496816 -0.0018761014
000070 1c 90 1a 3e da 89 18 be 18 06 da 3d 21 5e 56 be
       0.15094036 -0.14896336 0.106456935 -0.20934345
000080 0f 66 84 bd 4e 01 8c bd f5 c5 0a be 01 70 67 be
       -0.06464779 -0.06836186 -0.13552077 -0.2260132
000090 a1 6e e2 bc 73 ce 2a be 0a dc a9 3d 30 98 3e be
       -0.027640643 -0.16680317 0.08293922 -0.18612742
0000a0 b6 bd bb 3d 27 d8 25 bc 7d f7 1d 3e 97 3f 31 be
       0.09167044 -0.0101223355 0.1542644 -0.17309414
0000b0 13 04 13 3d 82 fa cc 3d 61 f1 fb 3c 80 e5 4b 3e
       0.035892557 0.10008718 0.030754747 0.19911766
0000c0 d8 0d b7 bd d3 97 af 3d 66 74 44 be f1 95 b0 bc
       -0.08938187 0.0857388 -0.19185027 -0.021555873
0000d0 a9 ec 12 be 22 50 70 3b 5d 70 2f be 0a 60 89 be
       -0.14348091 0.0036668857 -0.17132707 -0.26831084
0000e0 c5 53 93 3d 90 ca 88 3d 2d 1d a0 bd c4 8d 9b 3d
       0.07193712 0.06679261 -0.07818065 0.07595399
0000f0 84 d3 61 3d f9 fa 1b 3e 46 0f 21 be 08 16 5e 3e
       0.055133358 0.15232457 -0.15728483 0.21688092
000100 4e ba ad bd 91 dd fb bd 85 5c bb bd 01 cd 3d 3e
       -0.084828004 -0.1229812 -0.09148506 0.18535234
000110 bb a0 bd 3d bd 39 93 bd 0f 1b f0 3d b1 91 53 3b
       0.092591725 -0.07188747 0.11723911 0.0032282884
000120 11 d4 0d 3e 97 7b 41 3e 80 41 11 3d 7f ad 55 be
       0.13850428 0.18894802 0.035462856 -0.20866965
000130 10 53 3a 3d 32 18 e8 3d 1a 46 16 3e 06 b1 26 bd
       0.04548937 0.1133274 0.14675179 -0.040696166
000140 68 ac 19 39 42 7f 96 bb 6d 18 32 be 46 fd 20 be
       0.00014655443 -0.004592807 -0.1739213 -0.15721616
000150 f9 be be 3d 90 5a 12 be a8 e3 cc 3d 93 26 3e bd
       0.09313769 -0.1429236 0.100043595 -0.046423506
000160 05 5c 19 3e b2 48 7f be 06 4e ec bd 0d d1 fd 3d
       0.14976509 -0.24930075 -0.11538319 0.12393389
000170 d8 f8 3c 3d 3d 24 6d bd 5c 83 36 3e f8 2e 4f 3e
       0.046135753 -0.057895888 0.17823547 0.20232761
000180 68 c8 8d bc de 34 10 3e 8c 2f 0f bd 98 74 ed 3d
       -0.017307475 0.14082667 -0.034957454 0.11594504
000190 51 b3 fd 3d 81 9e 97 3d 9d c0 88 bc 89 93 97 bd
       0.123877175 0.07403279 -0.016693408 -0.07401187
0001a0 fd 04 91 3e 50 f0 29 3e f8 cb 6c 3e c4 62 46 be
       0.28324118 0.16595578 0.23124683 -0.19373614
0001b0 e0 40 f5 3c 51 c8 6c be 8d c0 00 3e 20 08 5d 3e
       0.029938161 -0.2312329 0.12573452 0.2158513
0001c0 ec 5d d3 bd 63 b5 b1 bd 7e a7 8a bd f2 bd f3 3b
       -0.103206486 -0.08677175 -0.06770228 0.0074384147
0001d0 8f 8b 8e 3e 87 ef 11 3c 7e ca a1 bd 20 27 2c 3e
       0.2784085 0.008907205 -0.078999504 0.168118
0001e0 8b 85 6a bd 60 a8 b8 3b 32 c8 2e be 7f fb 87 3d
       -0.057256263 0.0056353062 -0.17068556 0.06639766
0001f0 14 68 c8 3d ce 74 49 bc f6 d8 4d 3d c4 65 47 be
       0.09785476 -0.012295915 0.05025574 -0.19472414
000200 bb a7 5e be cc 9a 3e bd 39 c7 90 3c 30 95 75 bd
       -0.21743672 -0.046534345 0.017673122 -0.05995673
000210 98 11 0f 3e 5d 64 85 bc 09 54 c8 bd 3c c7 8e be
       0.13971555 -0.016283209 -0.097816534 -0.2788638
000220 dd 7b 74 bd a2 8f 75 be 81 7a 4c 3e 66 8b 80 be
       -0.059688438 -0.23980573 0.19968607 -0.25106353
000230 09 29 4c bd c1 12 0e be 04 0b 0f 3e f6 57 95 bd
       -0.04984382 -0.13874342 0.13969046 -0.07292168
000240 cb a0 81 3e b8 ff 9e bc 71 49 03 bc ad d5 61 3e
       0.25317988 -0.019409046 -0.008013115 0.22054167
000250 30 0b 12 be 72 89 c1 bd a8 d5 eb 3c 9c 3d 30 3e
       -0.1426208 -0.09450044 0.028788403 0.17211002
000260 2d 04 58 3d 0f 43 1d bd 20 c7 41 be 47 ee de 3d
       0.052738357 -0.03839403 -0.18923616 0.108852915
000270 38 b2 21 bd 7e 7e 28 be 50 c3 35 3d c3 85 d4 bd
       -0.039476603 -0.16454503 0.044375718 -0.103770755
000280 71 b8 31 3d bf 79 1b 3e e5 63 ce 3d be ce b9 bd
       0.043388788 0.15183161 0.10077647 -0.09072636
000290 bb 25 83 bc 55 69 39 be 97 c7 30 be b0 21 56 be
       -0.016009202 -0.18106587 -0.17263637 -0.20911288
0002a0 33 d6 42 be 72 c8 8c be 34 13 a0 bd 54 7a 13 be
       -0.19027023 -0.27496678 -0.07816163 -0.14402133
0002b0 70 0e fd bd 14 f6 8b bd db 57 63 bd 72 4b 3c be
       -0.12356269 -0.06834045 -0.055503707 -0.18388155
0002c0 ae cb 93 bd 46 96 87 3d ce 5c 04 be 3b 12 16 3d
       -0.07216583 0.06620459 -0.12926027 0.03663848
0002d0 9f 22 b0 bc 95 77 e1 bd ca 17 83 be 2c 45 b2 bd
       -0.021500884 -0.110091366 -0.25604087 -0.087046
0002e0 72 89 2b be 93 ee 69 bb e3 40 ec bc 87 69 b4 3c
       -0.1675165 -0.003569518 -0.028839534 0.022022976
0002f0 06 34 1a 3e 06 f6 8a be 08 7d de 3c d7 86 95 bd
       0.15058908 -0.27140826 0.027159229 -0.07301109
000300 0f b6 9d 3d a6 b2 26 bb 9f d0 80 be de b5 5a be
       0.077007405 -0.0025436073 -0.25159165 -0.2135844
000310 53 1b 86 bd 14 4c 69 be 16 55 1c 3c ee 06 a9 bd
       -0.065481804 -0.22782928 0.00954177 -0.08253275
000320 30 f7 12 be 76 2c 3f 3e da 77 1b bd a9 34 8b bd
       -0.14352107 0.18669304 -0.037956096 -0.067971535
000330 bc d4 55 be f8 2b a8 be d8 e3 05 bd 7d ea 90 bb
       -0.20881933 -0.32846045 -0.03268799 -0.0044224844
000340 eb 62 5c 3d df 0b 16 3e 5f fd c0 3d 80 63 4a 3a
       0.053805273 0.14652966 0.09423327 0.0007720515
000350 7b bf af 3d e9 74 db bd 43 b0 13 bd 01 bf c9 bb
       0.08581444 -0.10715658 -0.03605677 -0.0061568026
000360 ad 2d 4a be 95 4d 8c ba 80 ed a3 bd 8c a7 9b be
       -0.19743986 -0.0010704274 -0.08004284 -0.30401266
000370 7c 02 8e bd 8b 44 a1 3e 0d 36 78 3e 49 0f 7d be
       -0.069340676 0.31497607 0.24239369 -0.24712862
000380 3c 49 02 be 03 c5 6e bd 0b be a4 bd 44 fd 68 3e
       -0.12723249 -0.058293354 -0.0804406 0.22752863
000390 ab 13 1e 3e a7 06 bb 3c 94 09 45 3e bc ad 4c 3e
       0.1543719 0.02283032 0.19241935 0.1998815
0003a0 cc 28 76 3e 73 fc 5f 3e b9 4f be 3d 3c f0 ae 3c
       0.24039 0.21873645 0.0929255 0.021354787
0003b0 8a 6c a9 bd 4b 71 1a 3e a1 4f 8f be 61 d0 5d 3e
       -0.08272655 0.1508228 -0.2799044 0.21661521
0003c0 94 f9 06 be 43 34 3f 3c b8 e2 30 be 6e fe 61 be
       -0.13181144 0.011670175 -0.17273986 -0.22069713
0003d0 33 55 4d be dd ee e1 bc 6e 21 02 3d af b4 b3 bd
       -0.20052032 -0.02757972 0.031770162 -0.08774697
0003e0 d8 45 26 be 5f a4 29 3e 38 d7 47 be 17 20 e3 3d
       -0.16237581 0.16566609 -0.19515693 0.11090105
0003f0 a5 de e9 3c 44 3e 2e 3d bc 52 f3 bd e1 93 5c 3e
       0.028548548 0.04253985 -0.11881015 0.21540786

sequential/conv2d_1/Conv2D i1 [64, 3, 3, 64]
000000 d4 f4 c1 1c 25 2a c3 ee b7 08 04 f8 23 18 d2 1b
       -44 -12 -63 28 37 42 -61 -18 -73 8 4 -8 35 24 -46 27
000010 d9 26 f3 e2 ec d1 db 05 bc fb 11 e2 ef f6 05 17
       -39 38 -13 -30 -20 -47 -37 5 -68 -5 17 -30 -17 -10 5 23
000020 0c e5 0a 22 09 24 ce da cc cf 0f 1f 08 f9 f9 10
       12 -27 10 34 9 36 -50 -38 -52 -49 15 31 8 -7 -7 16
000030 1b 27 24 07 c6 d2 e2 cb ef dc 26 a6 cf b9 03 07
       27 39 36 7 -58 -46 -30 -53 -17 -36 38 -90 -49 -71 3 7
000040 e0 15 e0 e2 35 cd d0 cf 00 c4 29 e8 f8 f3 db 2a
       -32 21 -32 -30 53 -51 -48 -49 0 -60 41 -24 -8 -13 -37 42
000050 f6 11 0d d7 04 09 03 1c c5 f5 12 d5 2a 1c fb e5
       -10 17 13 -41 4 9 3 28 -59 -11 18 -43 42 28 -5 -27
000060 ed f9 f9 d8 ec f2 ea f4 25 21 1d 21 fb ed fa cd
       -19 -7 -7 -40 -20 -14 -22 -12 37 33 29 33 -5 -19 -6 -51
000070 d6 02 ea bc 26 f3 e9 c8 d9 fe 2b b2 e3 09 dd 16
       -42 2 -22 -68 38 -13 -23 -56 -39 -2 43 -78 -29 9 -35 22
000080 eb 01 12 37 e5 1f 9c cd a4 c0 e2 1d ec d3 c9 08
       -21 1 18 55 -27 31 -100 -51 -92 -64 -30 29 -20 -45 -55 8
000090 c0 e1 29 07 11 da 0a 1c ce f7 c2 f6 0d da bc 00
       -64 -31 41 7 17 -38 10 28 -50 -9 -62 -10 13 -38 -68 0
0000a0 0e ae b9 e6 bc c7 c9 c0 f0 eb 28 f2 12 d6 b9 f9
       14 -82 -71 -26 -68 -57 -55 -64 -16 -21 40 -14 18 -42 -71 -7
0000b0 e8 14 12 1f f1 f7 fd ef 23 26 1a fe ef 18 d5 0b
       -24 20 18 31 -15 -9 -3 -17 35 38 26 -2 -17 24 -43 11
0000c0 1e f9 e5 14 d5 16 a4 0f a5 14 19 95 e8 e3 e9 e3
       30 -7 -27 20 -43 22 -92 15 -91 20 25 -107 -24 -29 -23 -29
0000d0 d4 e8 11 da 0b df dc 17 f9 ee 21 2e 2a f5 12 c6
       -44 -24 17 -38 11 -33 -36 23 -7 -18 33 46 42 -11 18 -58
0000e0 0f 05 bc 14 08 ee d7 e7 f4 f8 1f 06 dc cb 09 fb
       15 5 -68 20 8 -18 -41 -25 -12 -8 31 6 -36 -53 9 -5
0000f0 08 1a f2 e9 ce 17 28 07 dc 1e 24 e8 c8 f6 db de
       8 26 -14 -23 -50 23 40 7 -36 30 36 -24 -56 -10 -37 -34

sequential/conv2d/Conv2D i1 [64, 3, 3, 3]
000000 0b cb 07 bc 81 d9 f7 fc e2 bc 30 c2 d2 8e f4 3c
       11 -53 7 -68 -127 -39 -9 -4 -30 -68 48 -62 -46 -114 -12 60
000010 d0 bc f2 2b 30 a4 ee 3e 2c b6 c7 cd e4 b8 3e 07
       -48 -68 -14 43 48 -92 -18 62 44 -74 -57 -51 -28 -72 62 7
000020 e9 1f 0e cb bb fa a3 4a 4d c7 ee 3a c4 81 c5 f7
       -23 31 14 -53 -69 -6 -93 74 77 -57 -18 58 -60 -127 -59 -9
000030 ea 42 cd 03 24 fb ea 9c 84 00 9f d6 f7 f0 81 2f
       -22 66 -51 3 36 -5 -22 -100 -124 0 -97 -42 -9 -16 -127 47
000040 a4 ae a9 cf 8b db 15 fd c6 a0 97 e6 c6 c8 bb 96
       -92 -82 -87 -49 -117 -37 21 -3 -58 -96 -105 -26 -58 -56 -69 -106
000050 c9 e3 0d 81 00 a6 9e b6 b4 27 d2 ca 1a 1f c3 bd
       -55 -29 13 -127 0 -90 -98 -74 -76 39 -46 -54 26 31 -61 -67
000060 a1 0e 96 d6 0c cb e7 99 c2 16 1d 01 e6 81 c0 c9
       -95 14 -106 -42 12 -53 -25 -103 -62 22 29 1 -26 -127 -64 -55
000070 f5 b1 f4 ca 03 98 ec 27 fa 3a 30 e3 2d fb ea 12
       -11 -79 -12 -54 3 -104 -20 39 -6 58 48 -29 45 -5 -22 18
000080 06 c6 cc e1 fe e2 9b 81 d6 84 9c 33 aa d6 a8 12
       6 -58 -52 -31 -2 -30 -101 -127 -42 -124 -100 51 -86 -42 -88 18
000090 46 3b d3 a8 ca ae 31 e7 96 b9 c1 ff ff 17 97 d8
       70 59 -45 -88 -54 -82 49 -25 -106 -71 -63 -1 -1 23 -105 -40
0000a0 ef d0 10 56 e5 d5 79 d1 d9 56 b9 fe 4a a3 4f f8
       -17 -48 16 86 -27 -43 121 -47 -39 86 -71 -2 74 -93 79 -8
0000b0 a5 4a 2f aa e4 28 8d e9 69 b6 48 7f ff 0f 44 d5
       -91 74 47 -86 -28 40 -115 -23 105 -74 72 127 -1 15 68 -43
0000c0 11 6d 32 40 4b e0 f0 08 81 11 77 8d 57 6f b5 1e
       17 109 50 64 75 -32 -16 8 -127 17 119 -115 87 111 -75 30
0000d0 cb 02 38 ee 1a 56 f5 86 af a1 c5 02 ea ad fe 81
       -53 2 56 -18 26 86 -11 -122 -81 -95 -59 2 -22 -83 -2 -127
0000e0 95 c4 ca b6 ce b8 d9 a7 d4 e1 f8 92 ac f7 b4 a4
       -107 -60 -54 -74 -50 -72 -39 -89 -44 -31 -8 -110 -84 -9 -76 -92
0000f0 17 aa d2 8b 44 ed d4 5c 04 ab 2d fb f2 3a 24 81
       23 -86 -46 -117 68 -19 -44 92 4 -85 45 -5 -14 58 36 -127

sequential/dense_1/MatMul i1 [100, 100] scale=0.0037395468 zero_point=0
000000 0f 17 fa f7 ed f3 01 16 b8 d0 f3 dc 17 25 22 f7
       0.0560932 0.08600958 -0.02243728 -0.03365592 -0.07105139 -0.048614107 0.0037395468 0.082270026 -0.26924735 -0.17949824 -0.048614107 -0.13462368 0.08600958 0.13836323 0.12714459 -0.03365592
000010 27 d7 01 ce f8 e3 ec f8 09 ec e3 d2 f5 09 13 21
       0.14584233 -0.15332142 0.0037395468 -0.18697734 -0.029916374 -0.10844686 -0.07479093 -0.029916374 0.03365592 -0.07479093 -0.10844686 -0.17201915 -0.041135013 0.03365592 0.07105139 0.12340504
000020 f6 e0 d8 0d de df 19 01 ed fe fa 06 0b 2d e5 ca
       -0.037395466 -0.119665496 -0.14958186 0.048614107 -0.12714459 -0.12340504 0.09348867 0.0037395468 -0.07105139 -0.0074790935 -0.02243728 0.02243728 0.041135013 0.1682796 -0.100967765 -0.20193553
000030 2b de dd 1c 27 1b 17 10 ed d3 4c 1e c3 0f 07 02
       0.16080052 -0.12714459 -0.13088414 0.10470731 0.14584233 0.100967765 0.08600958 0.059832748 -0.07105139 -0.1682796 0.28420556 0.1121864 -0.22811235 0.0560932 0.026176827 0.0074790935
000040 c0 f5 0d ed fa 0d 27 e7 d5 ca ff e8 0a fb f7 12
       -0.23933099 -0.041135013 0.048614107 -0.07105139 -0.02243728 0.048614107 0.14584233 -0.09348867 -0.16080052 -0.20193553 -0.0037395468 -0.08974912 0.037395466 -0.018697733 -0.03365592 0.06731184
000050 d9 05 04 dd e2 13 c5 27 24 09 e4 e0 1c 13 0b f8
       -0.14584233 0.018697733 0.014958187 -0.13088414 -0.1121864 0.07105139 -0.22063325 0.14584233 0.13462368 0.03365592 -0.10470731 -0.119665496 0.10470731 0.07105139 0.041135013 -0.029916374
000060 ec 03 f9 bf 19 ef df d7 f4 e9 f0 2f 0b e1 f9 ff
       -0.07479093 0.01121864 -0.026176827 -0.24307054 0.09348867 -0.063572295 -0.12340504 -0.15332142 -0.04487456 -0.08600958 -0.059832748 0.1757587 0.041135013 -0.11592595 -0.026176827 -0.0037395468
000070 e8 16 ea eb 1f 1f 19 de e4 22 d4 0b ea df 16 ff
       -0.08974912 0.082270026 -0.082270026 -0.07853048 0.11592595 0.11592595 0.09348867 -0.12714459 -0.10470731 0.12714459 -0.16454005 0.041135013 -0.082270026 -0.12340504 0.082270026 -0.0037395468
000080 13 d6 fb c9 fb 2a 1e c8 dd 0c 0e 03 04 d8 2b 01
       0.07105139 -0.15706097 -0.018697733 -0.20567507 -0.018697733 0.15706097 0.1121864 -0.20941462 -0.13088414 0.04487456 0.052353654 0.01121864 0.014958187 -0.14958186 0.16080052 0.0037395468
000090 27 d5 f1 1e cf 13 24 19 c7 2d 1c 05 f5 dd 18 17
       0.14584233 -0.16080052 -0.0560932 0.1121864 -0.18323779 0.07105139 0.13462368 0.09348867 -0.21315417 0.1682796 0.10470731 0.018697733 -0.041135013 -0.13088414 0.08974912 0.08600958
0000a0 f4 03 eb 28 fb 0d dd e5 de fe e6 dd fa d6 e3 27
       -0.04487456 0.01121864 -0.07853048 0.14958186 -0.018697733 0.048614107 -0.13088414 -0.100967765 -0.12714459 -0.0074790935 -0.097228214 -0.13088414 -0.02243728 -0.15706097 -0.10844686 0.14584233
0000b0 fe 0e 25 04 04 07 30 de ec da 1f 12 db f6 d6 06
       -0.0074790935 0.052353654 0.13836323 0.014958187 0.014958187 0.026176827 0.17949824 -0.12714459 -0.07479093 -0.14210278 0.11592595 0.06731184 -0.13836323 -0.037395466 -0.15706097 0.02243728
0000c0 fd e8 1f da 00 fd 0a e0 19 2a df e6 09 16 30 43
       -0.01121864 -0.08974912 0.11592595 -0.14210278 0.0 -0.01121864 0.037395466 -0.119665496 0.09348867 0.15706097 -0.12340504 -0.097228214 0.03365592 0.082270026 0.17949824 0.25054964
0000d0 24 de 2a d7 cb d6 1d 2f 15 ed ff 10 27 3d f1 d6
       0.13462368 -0.12714459 0.15706097 -0.15332142 -0.19819598 -0.15706097 0.10844686 0.1757587 0.07853048 -0.07105139 -0.0037395468 0.059832748 0.14584233 0.22811235 -0.0560932 -0.15706097
0000e0 20 ea de 24 00 00 e9 d1 e9 39 e3 e9 cc 27 1f 14
       0.119665496 -0.082270026 -0.12714459 0.13462368 0.0 0.0 -0.08600958 -0.1757587 -0.08600958 0.21315417 -0.10844686 -0.08600958 -0.19445643 0.14584233 0.11592595 0.07479093
0000f0 23 d9 fc 04 16 f7 d2 d2 20 0c 19 06 30 e4 f3 1a
       0.13088414 -0.14584233 -0.014958187 0.014958187 0.082270026 -0.03365592 -0.17201915 -0.17201915 0.119665496 0.04487456 0.09348867 0.02243728 0.17949824 -0.10470731 -0.048614107 0.097228214

sequential/dense/MatMul i1 [100, 7744] scale=0.0038185292 zero_point=0
000000 0b fc 08 fd 05 fe 0a 09 f5 fb 04 02 fd 07 f7 fc
       0.04200382 -0.015274117 0.030548234 -0.011455588 0.019092645 -0.0076370584 0.03818529 0.034366764 -0.04200382 -0.019092645 0.015274117 0.0076370584 -0.011455588 0.026729705 -0.034366764 -0.015274117
000010 f6 00 fe 10 ff fa fc 0d f9 fd 01 07 fa fc 04 09
       -0.03818529 0.0 -0.0076370584 0.061096467 -0.0038185292 -0.022911176 -0.015274117 0.04964088 -0.026729705 -0.011455588 0.0038185292 0.026729705 -0.022911176 -0.015274117 0.015274117 0.034366764
000020 0d ea fd 00 f4 f4 05 fd 01 04 fa 02 06 f9 03 e4
       0.04964088 -0.08400764 -0.011455588 0.0 -0.045822352 -0.045822352 0.019092645 -0.011455588 0.0038185292 0.015274117 -0.022911176 0.0076370584 0.022911176 -0.026729705 0.011455588 -0.10691882
000030 01 ee 05 fe fa 07 06 06 fe 04 fa fc 03 0e 04 f9
       0.0038185292 -0.06873353 0.019092645 -0.0076370584 -0.022911176 0.026729705 0.022911176 0.022911176 -0.0076370584 0.015274117 -0.022911176 -0.015274117 0.011455588 0.05345941 0.015274117 -0.026729705
000040 ff 18 14 08 06 ff 0d 06 1a 01 03 fd fc ff 02 fb
       -0.0038185292 0.091644704 0.07637058 0.030548234 0.022911176 -0.0038185292 0.04964088 0.022911176 0.09928176 0.0038185292 0.011455588 -0.011455588 -0.015274117 -0.0038185292 0.0076370584 -0.019092645
000050 fb f9 fe 07 f8 f3 04 0d 04 19 00 06 f9 fa ff 02
       -0.019092645 -0.026729705 -0.0076370584 0.026729705 -0.030548234 -0.04964088 0.015274117 0.04964088 0.015274117 0.09546323 0.0 0.022911176 -0.026729705 -0.022911176 -0.0038185292 0.0076370584
000060 02 f0 fe fe ed fa 02 fe f8 2c 05 02 f3 fb 01 f2
       0.0076370584 -0.061096467 -0.0076370584 -0.0076370584 -0.072552055 -0.022911176 0.0076370584 -0.0076370584 -0.030548234 0.16801529 0.019092645 0.0076370584 -0.04964088 -0.019092645 0.0038185292 -0.05345941
000070 03 ea 02 06 fc 05 00 23 0a fc 06 03 27 0c 06 fb
       0.011455588 -0.08400764 0.0076370584 0.022911176 -0.015274117 0.019092645 0.0 0.13364851 0.03818529 -0.015274117 0.022911176 0.011455588 0.14892264 0.045822352 0.022911176 -0.019092645
000080 09 18 0d fa 10 fe 09 02 03 fd 06 fc 05 00 f3 02
       0.034366764 0.091644704 0.04964088 -0.022911176 0.061096467 -0.0076370584 0.034366764 0.0076370584 0.011455588 -0.011455588 0.022911176 -0.015274117 0.019092645 0.0 -0.04964088 0.0076370584
000090 02 02 fc 11 f5 f2 f9 10 f8 e6 04 ff f5 fe fc fe
       0.0076370584 0.0076370584 -0.015274117 0.064914994 -0.04200382 -0.05345941 -0.026729705 0.061096467 -0.030548234 -0.09928176 0.015274117 -0.0038185292 -0.04200382 -0.0076370584 -0.015274117 -0.0076370584
0000a0 13 f1 fb 00 f4 f1 fa 05 fb 26 fe fc 06 f9 ff f2
       0.072552055 -0.057277936 -0.019092645 0.0 -0.045822352 -0.057277936 -0.022911176 0.019092645 -0.019092645 0.14510411 -0.0076370584 -0.015274117 0.022911176 -0.026729705 -0.0038185292 -0.05345941
0000b0 01 f6 07 fe 09 01 02 2c 09 01 fb 09 11 ff 07 ff
       0.0038185292 -0.03818529 0.026729705 -0.0076370584 0.034366764 0.0038185292 0.0076370584 0.16801529 0.034366764 0.0038185292 -0.019092645 0.034366764 0.064914994 -0.0038185292 0.026729705 -0.0038185292
0000c0 fb 0b 28 fc 0f f9 05 04 1e 00 fc fe fc fe fb fe
       -0.019092645 0.04200382 0.15274116 -0.015274117 0.057277936 -0.026729705 0.019092645 0.015274117 0.11455587 0.0 -0.015274117 -0.0076370584 -0.015274117 -0.0076370584 -0.019092645 -0.0076370584
0000d0 04 ff 07 05 f7 ef fb 0c 02 f9 f9 02 e5 fe ff 13
       0.015274117 -0.0038185292 0.026729705 0.019092645 -0.034366764 -0.064914994 -0.019092645 0.045822352 0.0076370584 -0.026729705 -0.026729705 0.0076370584 -0.103100285 -0.0076370584 -0.0038185292 0.072552055
0000e0 27 fd 06 f7 ed e8 fc fc fd 1e 0a fd 25 f9 fc fb
       0.14892264 -0.011455588 0.022911176 -0.034366764 -0.072552055 -0.091644704 -0.015274117 -0.015274117 -0.011455588 0.11455587 0.03818529 -0.011455588 0.14128558 -0.026729705 -0.015274117 -0.019092645
0000f0 f8 ef 0b 07 00 fb 00 3c 05 ff fa 0c 08 f0 06 fc
       -0.030548234 -0.064914994 0.04200382 0.026729705 0.0 -0.019092645 0.0 0.22911175 0.019092645 -0.0038185292 -0.022911176 0.045822352 0.030548234 -0.061096467 0.022911176 -0.015274117
